model.tflite (tflite, 68816 bytes, 11 tensors)

arith.constant f4 [1, 8]
000000 fb 51 07 3c c3 4f 44 bb 7f c4 90 bd a1 dd 52 3e
       0.008259292 -0.0029954768 -0.07068729 0.20592357
000010 a1 e4 29 3e 9d 07 0d be af 14 74 3e 35 d1 a6 bd
       0.16591121 -0.13772435 0.23836015 -0.08145372

arith.constant1 f4 [8, 16]
000000 17 f5 a1 bf c5 cc 07 be e2 84 56 38 bc 89 2e b9
       -1.265292 -0.13261707 5.1145333e-05 -0.00016645243
000010 84 bd 9f bf 7c fd c5 be cd 25 d2 be 2b 7f 36 be
       -1.247971 -0.38669956 -0.41044465 -0.17821948
000020 a2 91 19 bf ae d0 17 bf fd c8 dc be c9 f3 74 be
       -0.59987843 -0.59302795 -0.43122092 -0.23921122
000030 bc ba d1 be 05 fc fa be 44 bd 2b bc 1e ae 95 bf
       -0.4096278 -0.490204 -0.010482136 -1.1693761
000040 8c 30 b6 be f5 09 6b bd 9d 72 14 be 4e 05 10 bc
       -0.35583913 -0.057382543 -0.14496846 -0.008790327
000050 71 ae 6b bf b4 31 37 bf ba 49 9a be 3f 0b 98 be
       -0.9206305 -0.71560216 -0.30134374 -0.2969608
000060 f0 49 85 bf e2 52 f8 bc c4 33 b2 bf 69 19 fa bd
       -1.0413189 -0.03031296 -1.3922048 -0.12211878
000070 94 f0 6b bf ab af 64 3d 8e 5f d5 3e f1 e9 8c be
       -0.9216397 0.055831593 0.41674465 -0.27522233
000080 97 ab e4 be 32 ad 0b 3d 1a 06 5e 3d 50 48 9a 3c
       -0.44662163 0.03410072 0.054205038 0.01883331
000090 88 0e 35 bf 05 23 5f bf 05 e7 24 bf 0f be 30 3b
       -0.707253 -0.8716281 -0.6441501 0.0026968752
0000a0 a0 f6 31 bf 55 d1 27 bf 39 22 b8 be 6e 8e 63 3b
       -0.69516945 -0.6555379 -0.3596361 0.0034722346
0000b0 80 46 19 3b fe 5f 91 be 0e cd e8 be c1 82 6a bf
       0.0023387969 -0.2839355 -0.45468944 -0.91605765
0000c0 c2 06 db bd 10 54 b8 be cd 5c 92 be 52 5d 6b bd
       -0.10694648 -0.36001635 -0.28586426 -0.057462044
0000d0 92 b0 02 be 8a 38 34 be f8 71 c7 3e 35 64 d4 bd
       -0.12762669 -0.17599693 0.3895414 -0.103706755
0000e0 21 0a b6 be 83 15 70 be fb c0 57 3e b3 d4 35 bf
       -0.35554603 -0.23445706 0.2106971 -0.7102768
0000f0 6d 7e fb be 30 0f 2f be 5b 63 71 bd 60 b6 9d be
       -0.49119893 -0.17095637 -0.058932643 -0.30803204
000100 1a fd 3e bd 6a 62 29 bf 4d 51 30 bf be bb db be
       -0.046628095 -0.6616579 -0.68874055 -0.42916673
000110 f8 9c a3 bb 93 4c 53 3e 59 5c e0 be 25 f8 7e be
       -0.0049930774 0.2063468 -0.43820456 -0.24899347
000120 f1 4d 92 3d 9a fc e8 be 6e 62 a9 be 8c f8 0a bf
       0.071437724 -0.4550522 -0.33082908 -0.542855
000130 85 c6 e0 be 6e 64 61 bf ac ca 42 bf 2f b6 51 3e
       -0.43901458 -0.8804387 -0.760905 0.20479654
000140 06 6f 6c 3e bb 40 07 bc d9 85 b8 be d2 d5 fc bd
       0.23089227 -0.008255179 -0.36039618 -0.123454705
000150 a9 d4 a7 3e a2 71 68 3b ea 1d 8f 3e 79 ed 47 3e
       0.32779434 0.003546812 0.2795251 0.19524182
000160 a5 21 66 3e 86 c8 12 3e 6e d9 c6 3e 23 4a 5a be
       0.22473772 0.14334306 0.3883776 -0.21317343
000170 78 4a c5 3b 5d 48 db be 0f 74 5d bd c0 74 89 bc
       0.0060208403 -0.42828646 -0.05406576 -0.016779304
000180 72 b3 20 3e 7d fc 05 bd e1 d0 12 bd ab 9c 1b be
       0.15693453 -0.032711495 -0.035843734 -0.15196483
000190 42 f9 14 3e 3d 0d cb bb ff a3 0f 3e a1 87 93 bd
       0.1454821 -0.0061966465 0.14027403 -0.072036035
0001a0 3d cf a4 3d e2 25 e1 3d 39 c4 b7 3d 55 67 a4 bd
       0.0804734 0.10993554 0.089729734 -0.080275215
0001b0 c7 de 09 be e6 75 55 be 1e e6 53 be f8 39 9d 3a
       -0.13463889 -0.20845756 -0.20693251 0.0011995425
0001c0 cd ae e5 bf cd 95 b2 be ac 0c ca be 90 27 b4 be
       -1.794397 -0.34879914 -0.39462793 -0.35186434
0001d0 54 80 92 bf af 9e 5f bf f4 1f b4 bf 87 12 0c 3e
       -1.1445413 -0.87351507 -1.4072251 0.13678943
0001e0 41 57 b5 bf db 60 75 bf 67 4e b5 be c6 f1 81 3d
       -1.4167253 -0.95850915 -0.3541138 0.06344943
0001f0 fd a6 88 bd 2b fb 35 be 89 a6 de 3d dd bc 5e bf
       -0.066724755 -0.17771594 0.10871608 -0.8700693

arith.constant2 f4 [16, 32]
000000 ee 3f e3 3d 04 78 a1 be 74 51 d1 bc 85 0f d0 be
       0.11096178 -0.31536877 -0.025551535 -0.4063684
000010 72 06 14 bf 43 f2 4b bf 3a 34 7a 3e 41 17 f1 bd
       -0.57822335 -0.7966654 0.24433985 -0.117720135
000020 2d 89 44 bf 62 0e 4c bf 83 2f 02 3e e3 f4 67 be
       -0.76771814 -0.79709446 0.12713437 -0.2265201
000030 33 88 4c bf 23 a4 7e be 6f 1d 38 be 49 ac 3a 3d
       -0.79895324 -0.248673 -0.17979978 0.04557446
000040 6d a1 01 3d af bb b5 3d ed 72 38 be 37 3f c4 3d
       0.03164809 0.088736884 -0.1801259 0.0958237
000050 5f af 3d bc f8 94 e6 be f8 02 46 3c e2 c6 bb be
       -0.011577456 -0.4503553 0.012085669 -0.36675173
000060 22 61 a2 bd 52 68 84 bd c0 55 9c be d1 35 d9 be
       -0.07928683 -0.0646521 -0.30534172 -0.4242387
000070 9e 02 18 3e 2f 42 36 bf bd fb a0 bc 04 9d 1a 3e
       0.14844748 -0.7119474 -0.019651288 0.15098959
000080 86 a6 22 bf 0a c0 88 3d 2c dd 8a 3c e6 e7 77 bd
       -0.63535345 0.066772535 0.016951166 -0.06052389
000090 bc 25 2f bf 27 8e 8c be 1d ce e2 be 43 69 68 be
       -0.68416953 -0.27452204 -0.44297877 -0.22696404
0000a0 c5 4c 8b 3e b0 50 97 be 34 48 02 3e 07 ff 31 bf
       0.27207008 -0.29553747 0.12722856 -0.69529766
0000b0 5d 0a 58 bf 8e 93 ec be 6a eb c3 be d4 ee 1f bf
       -0.84390813 -0.46206325 -0.38265544 -0.624738
0000c0 35 b2 1e be a3 59 c4 be bc 93 e6 bd c2 b2 73 bd
       -0.15497668 -0.38349637 -0.11258647 -0.05949665
0000d0 f1 be 64 bf 2c 4f e0 bd b1 12 a6 be 90 62 fd bd
       -0.89353853 -0.10952601 -0.32436135 -0.12372315
0000e0 97 8d 36 bf 1b 76 4a be 99 59 8e 3e 53 bf 0b be
       -0.713098 -0.19771616 0.27802733 -0.13647203
0000f0 74 45 0b 3d f3 bd b6 3d 07 07 02 bf ef 88 5c bf
       0.034001783 0.08922949 -0.5079197 -0.86146444
000100 95 d7 f0 3e 65 d3 0d bf 54 c8 40 bf 71 d0 5f bd
       0.47039476 -0.5540069 -0.75305676 -0.054642145
000110 12 c7 80 3e ce d1 9d 3e 08 af 60 bf c2 57 0f be
       0.2515188 0.3082413 -0.87767076 -0.1399832
000120 6d a2 23 be 31 20 25 be c8 30 0f bf 77 ae 18 bf
       -0.1597993 -0.16125561 -0.5593381 -0.5964121
000130 02 25 52 3e 53 51 17 bf bd 7a fb bd b6 de 50 bf
       0.2052193 -0.59108466 -0.1227927 -0.8158983
000140 e9 a1 5a bf 17 1f 3d bf 1f 87 e2 be bf 61 45 bf
       -0.85403305 -0.73875564 -0.44243714 -0.77102274
000150 d3 ad 44 be 82 b0 ff 3e 21 60 ac bf f7 b4 0d 3f
       -0.19206934 0.49939352 -1.3466836 0.55354255
000160 52 9e cc 3f 29 67 82 be 00 e1 92 3f 10 f6 6d bd
       1.5985816 -0.2546933 1.1474915 -0.05809599
000170 ce fb 9d be 87 b1 5a bd c9 cb 18 3e f0 d3 35 bf
       -0.30856174 -0.05339196 0.14921488 -0.71026516
000180 5b 45 9f 3d ef 8b 8e bd c6 8f f2 be df 7b ad be
       0.077769004 -0.06960284 -0.47375315 -0.3388357
000190 f6 0f e2 3d 91 e4 c0 be c6 2e bb 3d f1 ca 82 3e
       0.110382006 -0.37674382 0.09139781 0.25545457
0001a0 10 7d af 3c 25 1b 11 bf d3 bb 8f be 4b 9c 12 bf
       0.02142194 -0.56682044 -0.28072986 -0.57269734
0001b0 3e d1 c9 be 86 f6 75 be f0 31 b8 bc ee ad ba be
       -0.39417452 -0.24019822 -0.02248475 -0.36460823
0001c0 aa aa e9 be 39 7d 7b 3c ff 77 35 bf 6f fe d2 bd
       -0.4563802 0.01534968 -0.70886225 -0.103024356
0001d0 53 38 68 be 9d 31 47 bf 50 91 f3 be 9a cd 2c bf
       -0.22677736 -0.7781008 -0.47571802 -0.67501223
0001e0 e3 ea bb bb 78 40 00 bf ae 54 83 be fa 8a e8 be
       -0.005734788 -0.5009837 -0.25650543 -0.4541853
0001f0 9e 47 f8 be b4 35 20 be d3 bb ae be 8d d5 45 be
       -0.4849214 -0.15645486 -0.34127674 -0.19319744
000200 25 23 aa 3d 5b bd d2 3d 2b b0 2d 3e 78 e8 55 bd
       0.083074845 0.10290023 0.16961734 -0.052223653
000210 9f 53 4a bf 88 6e ab be d2 99 11 3e 5a fe 14 bf
       -0.79033846 -0.33482766 0.14218834 -0.5820061
000220 c5 c1 55 bf a0 9c 32 bf 28 db 12 bf 24 61 5f be
       -0.83498794 -0.6977024 -0.57365656 -0.218144
000230 fe 1d ef bd 8c 4c 1e be f3 1e 61 bf 2d b4 40 be
       -0.116756424 -0.15458888 -0.8793785 -0.18818732
000240 12 0a 82 be 27 27 45 3d f5 8a 8d 3d 9a 04 06 bf
       -0.25398308 0.04813304 0.069112696 -0.5235077
000250 e4 40 ba 3d d0 43 10 bf 59 94 79 3e 9d 25 ea be
       0.09094408 -0.56353474 0.24372996 -0.45731822
000260 09 e3 26 3e 10 3c 11 be 72 fb 09 bf 2c 2b e7 3d
       0.16297545 -0.14183068 -0.538993 0.11287531
000270 ec 04 74 3e c6 e7 85 bf 69 7f 6b 3d ec df f9 bc
       0.23830003 -1.0461357 0.057494555 -0.030502282
000280 0f e6 dd 3e 6d 41 fa 3c 5d 60 d4 3d a7 61 42 bf
       0.43339583 0.030548776 0.10369942 -0.75930256
000290 61 dd c5 bb c9 fe ef be ea e6 0d 3e 53 c4 99 3d
       -0.0060383533 -0.46874073 0.13857618 0.07508149
0002a0 82 9d d5 be e4 ac 16 bf 84 c5 2d 3d d1 ff 01 3e
       -0.4172173 -0.5885756 0.042424694 0.12695242
0002b0 67 5a ad 3d 48 b0 ee 3d 85 84 19 bd 61 d4 2f bd
       0.084645085 0.11654717 -0.037479896 -0.04292715
0002c0 14 fd ea bc 5f dd 1a 3e 12 c2 02 3e a8 b1 cf 3d
       -0.02868513 0.15123509 0.12769344 0.10141307
0002d0 71 ef ef 3c c4 2a d4 be 7b b0 f6 3d cb 7f 55 bf
       0.02928898 -0.41438878 0.1204538 -0.8339812
0002e0 07 49 eb be 1d 1c 1b be 17 43 05 bf 54 c4 ca bc
       -0.45954153 -0.15147443 -0.52055496 -0.02475182
0002f0 8c 15 4c 3e 43 93 4d bf 0d 21 59 bf d8 8f 74 3d
       0.19930094 -0.8030283 -0.84816056 0.059707493
000300 2e 05 27 bf fb 2b bc 3d a2 59 0b bb 2b 8e b3 be
       -0.6524228 0.09188076 -0.0021263142 -0.35069403
000310 f9 8a 1e bf a1 16 bf bc a5 2d fc bc bd ee e2 bd
       -0.61930805 -0.02332622 -0.030783484 -0.11080692
000320 ab df 70 be 8a ed 47 bf 1c d6 81 bc 07 a7 ce be
       -0.23522823 -0.7809683 -0.015849166 -0.40361807
000330 90 85 28 bf 73 02 06 bf 21 1b b2 bd 91 0f 18 be
       -0.658288 -0.5234749 -0.08696581 -0.14849688
000340 ad 3d ac 3c 24 5b e0 bd 1e 6c 3b 3e 48 5e c8 3d
       0.021025503 -0.10954884 0.18302962 0.09783608
000350 69 72 8a be 73 24 64 bf d2 d4 32 be 4a 08 66 bf
       -0.27040413 -0.8911812 -0.17463997 -0.898564
000360 cd 3d b4 be c5 d7 5c 3d b3 d2 ba be 51 6d 08 bd
       -0.352034 0.05391671 -0.36488876 -0.033307377
000370 fc be 23 bd db 3d f7 be 64 2f 4c be a7 7d 35 3d
       -0.03997706 -0.4828938 -0.19939953 0.044309285
000380 12 d9 0a be b8 b3 b4 be 1c a8 da be 5f 7b a4 bf
       -0.13559368 -0.35293365 -0.42706382 -1.285015
000390 ed 31 41 3d 75 3f f8 bd e1 f9 85 be f1 52 14 be
       0.047166754 -0.121214785 -0.26167205 -0.14484765
0003a0 ac 0d c6 be cf 23 c2 be 28 66 14 3e 0b f7 74 3e
       -0.38682306 -0.37917945 0.14492095 0.23922364
0003b0 bf 4c 3b 3e 89 e2 ee be a2 9e 70 be a6 e3 02 bf
       0.18290995 -0.46657208 -0.23498014 -0.51128614
0003c0 de e3 0f 3e b1 d7 88 3e e4 8a e4 bd 08 89 c3 be
       0.14051768 0.2672706 -0.11159304 -0.38190484
0003d0 87 49 fc be 15 a1 00 3f ec ad f4 be ad 50 0e 3f
       -0.49274847 0.5024579 -0.47788942 0.5559185
0003e0 4a 3d 4c 3f 86 86 ef be d3 79 eb be f1 34 92 3d
       0.7978102 -0.4678232 -0.45991382 0.07139004
0003f0 6f 82 17 bf 9a cc 31 3d 06 c3 36 3e 17 25 3d be
       -0.591834 0.043408014 0.17847833 -0.1847118

arith.constant3 f4 [32, 64]
000000 71 ea 24 3f 5f fb b6 be cd b7 22 3d a2 ee e5 3e
       0.6442023 -0.35738656 0.039726067 0.44908625
000010 71 ff b8 bd ae 5f 23 3e 9b f9 11 3f 01 49 b4 be
       -0.090330966 0.15954468 0.5702149 -0.35211948
000020 da b7 bb 3e 42 78 18 3e 0a 5f e9 3e 17 21 51 3e
       0.36663705 0.14889625 0.45580322 0.20422779
000030 8b bc e7 be 62 f4 af 3e 08 d2 07 3d 0f e1 8e 3e
       -0.45261034 0.34366137 0.033159286 0.2790608
000040 8c 03 9b be 1d 82 e1 be 89 9c b9 3e 20 3e b7 be
       -0.30276144 -0.4404458 0.3625224 -0.35789585
000050 eb 70 85 be 04 ed 31 3e 18 3c e4 bc 3b ef 9f be
       -0.26062712 0.1737557 -0.027860686 -0.31237206
000060 e0 ca ba bd 8f fe ea 3d a2 a6 84 be 38 4a 92 3e
       -0.091207266 0.114743344 -0.2590838 0.2857225
000070 83 95 7d 3e 61 ee b3 be 27 a2 18 3e 0a 60 ea be
       0.24764065 -0.35142806 0.14905606 -0.45776397
000080 b3 a1 c1 be e0 de dc 3e da ba 0d be 70 ea 1c be
       -0.3781868 0.4313879 -0.1384081 -0.15323806
000090 57 b7 36 bd c3 75 e1 bd 72 0e 49 be e2 37 3d be
       -0.04460844 -0.110087894 -0.19634417 -0.18478349
0000a0 cb f6 42 bd 79 1d 82 be ea 25 0f be dd ec 06 3f
       -0.04759864 -0.2541311 -0.13979307 0.52705175
0000b0 b4 07 5f 3e e4 33 e5 3e 6c 9b bb 3d 62 e3 06 bb
       0.21780282 0.44766152 0.09160504 -0.0020582308
0000c0 42 f4 ea bd 59 5f 24 3f 0c 61 80 3e 3d d9 a7 3e
       -0.1147237 0.6420799 0.2507404 0.32782927
0000d0 d7 95 45 be 4e a5 98 3e 46 97 e1 3d 1d 06 7c bf
       -0.1929544 0.29813617 0.11015181 -0.9844683
0000e0 8a b5 72 bc 2c 1c 6c be ef f4 27 be 8d 5d e3 bd
       -0.01481379 -0.23057622 -0.16402029 -0.11101828
0000f0 cf b8 31 3e 05 17 dc be 78 04 d9 be bf 8a 13 bf
       0.17355655 -0.42986313 -0.42386222 -0.57633585
000100 8b 58 7a be 83 27 05 bf 9e 52 94 bf 1f c4 89 3c
       -0.24447839 -0.52013415 -1.1587713 0.01681715
000110 b2 f0 96 be 6a 1c 03 bf b2 9e 4f bf 7e ad 01 bf
       -0.2948051 -0.5121523 -0.81101525 -0.50655353
000120 94 c9 96 be 20 4e 04 3e 4a 40 30 3e 77 6c c8 3d
       -0.29450667 0.12920427 0.17212024 0.09786313
000130 dd 6c 97 bc 2e 9f bf 3e 1c 1d bb be af 53 7d 3d
       -0.018484527 0.37426132 -0.36545646 0.061847385
000140 3d 4b c0 3e b4 a8 0e bf f1 ac a7 bf c1 b0 8c 3e
       0.37557402 -0.5572617 -1.3099653 0.27478603
000150 00 2f b4 be 5f 4e 37 3e 32 a2 de be 05 05 76 3f
       -0.35192108 0.1790099 -0.4348312 0.9610141
000160 ab 0c 26 bf 3a 49 d5 3e 3f b7 9a 3e 54 8f 0a be
       -0.6486308 0.4165743 0.3021793 -0.13531238
000170 64 80 ec be 4d 10 6f be 06 c5 8e be 9f 35 08 3f
       -0.46191704 -0.23346062 -0.27884692 0.5320682
000180 04 7c 1f bc cd 91 16 bf 07 91 b6 3d 7c fd e1 3e
       -0.0097341575 -0.58816224 0.089143805 0.44138706
000190 6f e3 67 bf 39 21 34 3e f6 11 4b 3e 08 bb 19 3f
       -0.9058141 0.17590798 0.1983107 0.6005101
0001a0 55 9b 6d bd 92 99 b3 be 69 f9 38 be 2c c4 b0 be
       -0.058009464 -0.35078102 -0.18063892 -0.34524667
0001b0 6d 35 c1 be eb 64 25 bf f0 d4 1e 3e 17 4d 27 3e
       -0.37736073 -0.64607114 0.15510917 0.16338001
0001c0 cc 73 0d bd bd f2 64 bf dd 0d 8f bf f9 7b 3a be
       -0.03453426 -0.8943289 -1.1176106 -0.18211354
0001d0 f0 35 f9 3e 6e 7f 42 be a2 b0 08 3f 1b d1 10 be
       0.48673964 -0.18993923 0.5339452 -0.14142267
0001e0 4a 18 12 3f ed 29 4e 3f 75 3a 32 bc b8 47 57 3f
       0.5706831 0.80532724 -0.010878195 0.8409381
0001f0 af 0b d4 be 17 f8 1a 3f e1 9c a3 3e 7e df 90 bd
       -0.41415164 0.60534805 0.31955627 -0.07073878
000200 ce aa d9 3e 85 32 8a 3d 40 44 fa be 7b d0 71 3e
       0.42513126 0.06747917 -0.48880196 0.23614685
000210 6c 00 39 bd 5e d6 9d 3e de 7a bf 3e 73 8d 1d bf
       -0.045166418 0.30827612 0.37398428 -0.6154396
000220 9e a3 83 bf 47 68 4c bd 64 33 a7 be 72 d0 b3 3e
       -1.0284307 -0.049904134 -0.32656395 0.3511997
000230 1b 6d f9 3e 73 af 13 be 19 79 0c be 33 17 c3 3e
       0.48716053 -0.14422397 -0.1371807 0.38103637
000240 32 8a 8e 3e 23 e3 92 be cc a3 ad bf 86 1c 20 be
       0.2783981 -0.28688917 -1.3565612 -0.15635881
000250 38 cd 94 be 1d e4 9e 3e 5d 9e 08 be b6 6a 84 3f
       -0.2906282 0.31033412 -0.13341661 1.0345066
000260 01 3f 8f bf 2e 43 80 3e e6 c0 1e 3f 20 fd 6c bd
       -1.1191102 0.25051254 0.6201309 -0.057858586
000270 79 62 28 bf ba 33 85 be 6f d9 80 be 4a 87 56 3f
       -0.6577526 -0.26016027 -0.2516589 0.83800185
000280 d0 49 a9 be 90 85 05 bf cc 84 9e 3c 9c e4 0d 3f
       -0.33064127 -0.52156925 0.019350432 0.55426955
000290 39 41 35 bf d2 f4 a2 3d 2f 0a 90 3e 17 6f 46 3f
       -0.70802647 0.07956852 0.2813277 0.7751326
0002a0 fc 95 ba bd 46 ae ac bd df de 01 be b7 85 0e bf
       -0.091106385 -0.084316775 -0.12682675 -0.5567278
0002b0 c8 c0 0e bf 2f e4 5d bf 78 77 da 3e 97 f7 eb 3d
       -0.5576291 -0.86676306 0.42669272 0.115218334
0002c0 00 e1 c0 bd 79 e5 24 be 50 cb 60 bf 63 c4 e6 be
       -0.09417915 -0.16103162 -0.8781023 -0.45071706
0002d0 e0 9d 1f 3e fc 49 24 bc 72 9d b9 3e dc b6 19 3e
       0.15587568 -0.010027405 0.36252934 0.15011162
0002e0 74 7a 93 3f 03 3f 70 3f b9 8a 89 bd 5e 9b 19 3e
       1.1521745 0.9384615 -0.06715912 0.15000674
0002f0 4a 75 11 bf 77 e3 5d 3e 61 e0 70 bc 26 57 65 bd
       -0.56819594 0.21668802 -0.014701934 -0.055991314
000300 e4 b2 2c 3f 94 05 24 bf 70 c1 69 3f 27 44 0b 3f
       0.67460465 -0.6407101 0.9131079 0.5440087
000310 e0 9e 26 be 98 8a c2 be b0 6b 79 3f 49 e1 90 3c
       -0.16271544 -0.37996364 0.97429943 0.01768555
000320 a1 0c 9e 3e 50 ed 19 3f 1a 96 12 3f 17 05 f0 bd
       0.3086901 0.60127735 0.57260287 -0.11719721
000330 5f 12 58 bf 96 ba 12 3f 37 91 c4 3e 7c b9 19 3f
       -0.8440303 0.5731596 0.3839204 0.6004865
000340 aa d6 92 bf 6a 4b 8f 3e fc 76 e7 bd 6a 60 27 bf
       -1.147176 0.27987224 -0.11301991 -0.6538149
000350 86 03 e2 3d 87 f0 8e be 0f 97 64 3e 78 63 84 bf
       0.11035828 -0.27917883 0.2232325 -1.0342855
000360 03 d8 f6 3e 59 f4 0e bf b1 96 5c bf 8b 5e ed 3d
       0.4821168 -0.55841595 -0.86167437 0.11590298
000370 3b 9c f2 3e ec 5c b4 3e e7 37 66 3f e1 8f 52 be
       0.4738482 0.35227144 0.8992905 -0.20562698
000380 62 bd 24 3f 0b 4c fc bd 39 8a b8 be 29 a9 2e bf
       0.64351475 -0.123191915 -0.36042956 -0.6822687
000390 24 74 46 3f 13 8b 24 bf 1e 04 5d bf 16 94 03 bf
       0.77520967 -0.6427471 -0.8633441 -0.51397836
0003a0 da 44 b7 bd 9d b7 e7 bc a4 b3 98 3e f5 92 44 3f
       -0.08948679 -0.028285796 0.29824555 0.7678674
0003b0 45 47 e6 3e 9b d5 81 3f 77 f5 e2 be c4 0c a5 bd
       0.4497625 1.0143312 -0.443279 -0.080590755
0003c0 24 b7 3e be 7f e7 25 bc be 4c 47 3f 47 f5 b6 3e
       -0.1862455 -0.010125994 0.77851474 0.35734007
0003d0 04 61 d6 be 8f 38 d6 3c 86 bd 4f bf 3e 0b ed be
       -0.41870892 0.026150016 -0.81148565 -0.4629764
0003e0 51 f3 d8 be 32 80 ec be 36 77 6d bf ca 25 19 be
       -0.42373136 -0.46191555 -0.92760026 -0.14955822
0003f0 96 0b 20 3f 40 fe 4e bf 4e 4d cb be e3 66 1d be
       0.6251768 -0.80856705 -0.39707416 -0.1537128

arith.constant4 f4 [64, 128]
000000 74 82 fe bc da b3 1c 3f d1 fa c2 be 9b 08 2d 3e
       -0.031068064 0.6121193 -0.38081983 0.16897814
000010 93 73 8c 3d f3 a2 ab 3e 4f 0a cd be 58 12 5e 3e
       0.068579815 0.33522758 -0.40046927 0.21686685
000020 27 fa c7 3d f6 74 16 bf 88 65 46 bf 38 3c 97 be
       0.0976451 -0.5877222 -0.77498674 -0.2953813
000030 29 ca 63 3f ea 22 5f be 7a 14 0f be ed 61 6c 3e
       0.88980347 -0.21790662 -0.13972655 0.2308423
000040 ce 4e 4a be 33 00 a6 bd 9a fa c5 3e 06 69 bd bf
       -0.19756624 -0.08105507 0.38667756 -1.4797676
000050 5d e9 ad 3d 1f cd f8 3d 13 fb 4d bd fe 32 da be
       0.08491776 0.12148499 -0.05028827 -0.4261703
000060 d5 f6 90 bd 21 fe 0f 3e 4e 62 cc be 43 d3 70 be
       -0.070783295 0.14061786 -0.3991875 -0.2351809
000070 b9 19 50 bf b2 b8 f2 3e d4 15 72 3f 6c ec 14 3f
       -0.8128925 0.47406536 0.9456456 0.5817325
000080 08 6e 0f be a4 f0 98 3e c1 06 cb 3e c7 42 ee be
       -0.14006817 0.29871094 0.3965359 -0.46535322
000090 44 96 e4 be ac d0 55 bd 66 a8 7e 3e a4 7a 69 3e
       -0.44645894 -0.052200958 0.24868926 0.2280069
0000a0 0f 5f e6 3d e7 b6 e6 bc 36 44 36 3f 6b c2 72 bf
       0.112486 -0.028163387 0.7119783 -0.9482791
0000b0 5b d7 74 bf cc 60 3f 3f 3d 2c af bd 3c 4c 1d bf
       -0.95641106 0.74757075 -0.0855336 -0.6144445
0000c0 84 a4 19 bf 8d 63 97 be 3f eb a9 bf 20 86 01 be
       -0.60016656 -0.2956814 -1.3274916 -0.12648821
0000d0 db 16 8b bd ad 40 3c bf c0 a4 a0 3e 2b 3d dc 3d
       -0.06791469 -0.7353619 0.31375694 0.10753854
0000e0 86 97 41 3f 95 a1 11 3f ab ed 0b 3f b7 d6 89 be
       0.7562183 0.5688718 0.5465953 -0.26921627
0000f0 5d f2 b5 bf d8 a4 56 3e 56 aa e2 3e c2 cc ca be
       -1.4214588 0.2096132 0.4427058 -0.39609343
000100 88 38 2f bf 7c 4a e5 3e c9 f2 4e bf b7 6d 67 bd
       -0.68445635 0.4478339 -0.8083921 -0.056501117
000110 61 ab f0 be b5 b4 ca be 1f a1 38 3f b4 5a 84 3c
       -0.47005752 -0.39590994 0.7212085 0.016156532
000120 97 9b 89 bf 05 e2 87 be 5c 8c 06 3f d6 b6 96 be
       -1.0750607 -0.26539627 0.5255792 -0.29436368
000130 1e 6e a3 be b4 e6 b8 3c 35 1a e3 be 23 f8 da be
       -0.3191995 0.022570945 -0.44355932 -0.42767438
000140 50 4b 83 be 96 26 83 bd 32 ff 0d bb 67 1f 2a 3f
       -0.25643396 -0.06403844 -0.0021667 0.66454166
000150 74 90 5d bf 04 5b 0a bf 62 46 41 bf d7 e9 de be
       -0.8654854 -0.5404513 -0.7549802 -0.4353778
000160 da 61 e4 3e c5 df 8b be a1 d8 33 bf 39 d3 10 bf
       0.44605905 -0.2731916 -0.70252424 -0.565723
000170 91 6e 7b be 80 47 50 bf 56 7c 37 be 9e c1 38 bf
       -0.24553896 -0.813591 -0.17918524 -0.72170436
000180 b9 7a 98 3d 91 d1 c8 bf 28 3f 64 be 53 89 38 bf
       0.074452825 -1.5688955 -0.22289717 -0.7208454
000190 25 a1 29 3e 02 59 44 bf 5a 98 0b 3f ff d7 8a bf
       0.16565378 -0.76698315 0.54529345 -1.0847167
0001a0 6b c7 c3 be 0c 63 75 be c1 db bd bf 84 5a 0f be
       -0.3823808 -0.23963565 -1.4832689 -0.13999373
0001b0 fa 45 9e 3e 1f 2e 09 3f 3a 9e 8c bd bf 0e 87 3f
       0.30912763 0.53586 -0.06866117 1.0551375
0001c0 3f 0b 50 bf f5 1d 85 3d 11 ed 87 3e 8d b2 91 bc
       -0.8126716 0.064998545 0.26548055 -0.017785335
0001d0 4a 5b 31 bf 5f 26 07 bf 95 47 99 bf af 58 be be
       -0.6927992 -0.52792925 -1.197497 -0.37177035
0001e0 96 01 d6 bd 5a ac 17 bd ce c6 9e 3e cd 48 af 3e
       -0.10449521 -0.0370296 0.3101105 0.3423523
0001f0 89 86 a6 bd da 0f 24 bf 1f 0e 22 bf be ea 7c 3e
       -0.08131129 -0.6408669 -0.633028 0.24698922
000200 9b 77 7a be 20 b4 8d bf 3d b3 40 3f dc a8 13 3f
       -0.24459688 -1.1070595 0.75273496 0.57679534
000210 b2 ca 7d bf 81 3b 0b bf 9b db c6 3d 16 94 7e 3e
       -0.99137414 -0.5438767 0.09709855 0.24861178
000220 7d 4e 50 3e af 78 43 bf 52 f7 43 3e ae 44 94 bf
       0.20342441 -0.76356024 0.19137314 -1.1583459
000230 ea 3c 2a be 39 af 17 bf 59 5d 37 bf aa 65 4f 3f
       -0.166248 -0.59251744 -0.7162681 0.810145
000240 e1 8a 96 3e 78 d9 80 bf 8c 92 81 be 17 92 84 3e
       0.2940283 -1.0066366 -0.2530712 0.25892708
000250 f8 a2 7a be 64 cc 2d be 05 fb 01 3f cb 8a 29 3d
       -0.2447623 -0.169725 0.5077365 0.04139213
000260 40 86 26 be 5e d2 ef 3e 44 0a 58 3f c8 42 31 be
       -0.1626215 0.46840185 0.84390664 -0.17310631
000270 e6 7a cc 3e 7b aa 9d be ba 10 2c be 3c bd bc bf
       0.39937514 -0.3079413 -0.16803256 -1.474525
000280 c0 5b a5 3e be 1b a5 bd be a6 d5 3e 10 16 b0 bd
       0.32296562 -0.08061932 0.41728777 -0.08597958
000290 e4 3e 91 3e f5 4d 9a 3e 5c 77 f8 be 49 ef 09 3f
       0.28368294 0.30137601 -0.48528564 0.53880745
0002a0 3b ee a0 3e 86 5b d7 be c7 4f 11 bf 90 21 d2 3d
       0.31431755 -0.42062014 -0.56762356 0.10260308
0002b0 35 ea c8 3e 5c a6 6e be 96 d8 05 3f 11 0a 69 bf
       0.39241186 -0.23305649 0.5228361 -0.91030985
0002c0 27 e2 50 3e 23 0d 5d 3f 27 4b 04 3e 99 9a fd bb
       0.2039877 0.8634817 0.12919293 -0.0077393767
0002d0 93 5d 6b be aa e7 d7 3c 69 a9 03 3f 5f 58 af 3e
       -0.22984914 0.026355583 0.51430374 0.3424711
0002e0 2b fd 30 c0 02 53 e2 bc 7a 0d a3 be a2 06 85 bd
       -2.7654521 -0.027627472 -0.3184622 -0.06495406
0002f0 99 eb 21 3f e2 df 2d bc c9 7f f7 bd c1 a1 d9 be
       0.6325012 -0.01061246 -0.1208492 -0.4250622
000300 bf e2 96 3f fd 8f e5 be 57 4f b9 3e 12 2a 5c bf
       1.1787947 -0.44836417 0.36193344 -0.86001694
000310 a0 b3 26 3f e8 18 ef 3e a1 fc bb bd 77 30 82 be
       0.65117836 0.4669869 -0.091790445 -0.254276
000320 3c df 16 be ad 20 12 bf 7c e4 73 bf 86 89 5f bf
       -0.14733595 -0.5708111 -0.95270514 -0.8731922
000330 43 c8 fb 3e b3 74 b1 3e 80 9c 89 be e1 98 3b 3d
       0.49176225 0.34659347 -0.26877213 0.045800094
000340 42 a0 90 3e fa 86 8f bf ef 65 b7 bf 85 6a 84 bf
       0.28247267 -1.1213067 -1.4327983 -1.0345007
000350 3a 70 ae be 98 49 41 bf da 64 27 bd ee d1 46 be
       -0.34069997 -0.7550292 -0.040867664 -0.1941602
000360 f8 76 ea 3e fd f0 9a be f5 b6 b8 be 1c c7 d1 3e
       0.4579389 -0.30261984 -0.36077085 0.4097222
000370 8a 57 da be 87 22 d0 bf 2a 7c 13 bf 6a ac 1a 3e
       -0.42644912 -1.6260537 -0.57611334 0.15104833
000380 ca 05 42 3e d1 3c 62 3e cd 0b b7 bf b7 19 46 3e
       0.18947521 0.22093512 -1.4300476 0.19345747
000390 9d 73 97 3e 68 3a ff 3d e6 ea c6 3e 13 a4 45 3f
       0.29580393 0.12462312 0.38851088 0.7720348
0003a0 38 a2 00 c0 3b 1a 49 3f 43 04 c7 bd a0 09 8f 3e
       -2.009901 0.7855565 -0.0971761 0.2793703
0003b0 62 b7 18 3f 71 e5 10 bf ff 0a d9 be fd e8 c4 3e
       0.5965482 -0.566001 -0.42391202 0.38459006
0003c0 80 42 1d 3f b5 fb 1b 3d bb b8 8d be 35 8b da bd
       0.61429596 0.038081843 -0.2768 -0.10671083
0003d0 51 5b 2b 3f 6c 47 73 3e 67 70 86 3f 06 68 54 bf
       0.6693621 0.23757714 1.0503052 -0.8297123
0003e0 da dd b8 be ac 6e 6f 3e 15 86 4f 3e dd 2e 5e 3f
       -0.3610676 0.23382062 0.20265992 0.8679026
0003f0 aa 0b 35 bf 1b 8d 1d 3d e0 30 08 be 5d 20 99 3f
       -0.7072092 0.038464647 -0.13299894 1.1963001

arith.constant5 f4 [16]
000000 5f d5 69 3e 0e be 19 c0 1d c5 0c 3f 5d 0c f6 3e
       0.22835301 -2.402225 0.5498827 0.48056307
000010 d4 d3 8f 3e 4a b5 81 be 78 94 61 3e 35 65 a1 3e
       0.280913 -0.25333625 0.22029293 0.31522527
000020 ff b9 0a 3f ff 9e ad 3f a7 c5 ba be 35 41 63 bd
       0.5419006 1.3564147 -0.36478922 -0.05548211
000030 6f f8 92 be 6f 59 20 3e ee c9 17 3e d3 aa b2 bc
       -0.28705165 0.15659116 0.14823124 -0.021809971

arith.constant6 f4 [32]
000000 9a e9 ae bf 43 cc 73 bf 54 34 d5 be 1a d1 67 3f
       -1.366504 -0.95233554 -0.41641486 0.9055344
000010 01 77 4c 3f c4 06 c2 3f 6b 3e ce be a9 d8 f0 be
       0.79869086 1.5158315 -0.40281996 -0.470403
000020 2b ec a9 3e 61 40 56 3f fd 39 cb bd 23 d5 b1 bf
       0.33187994 0.83691984 -0.0992317 -1.3893169
000030 6c 79 81 3f 16 6f 98 3e 7a 5a dc 3e b1 dd 6d 3f
       1.011518 0.29772252 0.43037778 0.929164
000040 32 fe 8b 3d f5 0a 9a bf 9b fc 9e be a8 05 00 bf
       0.06835593 -1.2034594 -0.31052098 -0.5000863
000050 fc a1 6e bf 19 6d 18 3f d8 a8 7c 3f 26 d1 25 bf
       -0.9321592 0.5954147 0.98695135 -0.6477226
000060 7c 33 2d bf 41 a5 f3 bf af 32 a6 3e 93 16 43 bf
       -0.67656684 -1.9034806 0.32460544 -0.7620632
000070 a1 41 81 be 07 cc e6 3f 9f be f0 3c 67 4b 8e bd
       -0.25245383 1.8031014 0.02938777 -0.069479756

arith.constant7 f4 [64]
000000 bf d0 2c 3c 8e 20 8f 3e 90 70 8a 3f 86 20 f6 3e
       0.010547816 0.27954525 1.0815601 0.48071688
000010 44 49 5a c0 53 d0 e2 be 39 23 ec 3e 08 8c 2f 3f
       -3.4107218 -0.44299564 0.46120623 0.68573046
000020 29 85 1d 3f 74 5f 6d bf 88 2a 84 bd a0 38 fe be
       0.6153131 -0.92723775 -0.06453425 -0.49652576
000030 c5 4d 29 be d8 ec c5 bf 4d 5e 9a 3f 41 fa a4 bc
       -0.16533573 -1.5462904 1.2060028 -0.020138862
000040 61 7c 9d bf 28 50 d5 bf 10 de 99 3f a3 20 8a bf
       -1.2303582 -1.6665087 1.2020893 -1.079121
000050 98 84 89 bf 96 4b 37 3f 76 02 f0 bf d6 ee 02 3e
       -1.0743589 0.7159971 -1.8750751 0.12786421
000060 a3 09 e6 3f 89 b5 7c be 78 5d 9e bf 6f 95 7c bf
       1.7971691 -0.24678625 -1.2372274 -0.9866552
000070 1f 41 92 3e c4 fd 4b be e5 ca 5e 3f 7f d7 42 bf
       0.28565308 -0.19921023 0.8702834 -0.7611007
000080 18 5f 67 be 87 17 99 3f 34 31 1e bf 76 a0 27 bf
       -0.22594869 1.1960305 -0.6179383 -0.6547922
000090 c8 e5 b0 bf 7c d0 04 bf 48 5e f2 be 6a 31 3b 3f
       -1.3820124 -0.5188062 -0.47337556 0.73122275
0000a0 b7 7b 78 be 01 40 62 c0 10 ae 40 bf 34 e9 69 3f
       -0.24265943 -3.5351565 -0.752656 0.91371465
0000b0 9e c1 7b 3f 52 1d 1c 3f 9b 03 1e bf 7a 9f ce be
       0.9834231 0.6098224 -0.6172425 -0.40356046
0000c0 bd aa 41 c0 84 6f 85 be f5 7a ec 3f 31 2d 65 3f
       -3.026046 -0.26061642 1.8475024 0.8952208
0000d0 aa 73 11 bf 8b 05 cd be 72 a8 b2 be 8c 6b 8a 3e
       -0.56817114 -0.4004329 -0.3489414 0.27035177
0000e0 77 69 7a 3e b5 f7 8b bf d6 eb 12 c0 f5 87 bf 3e
       0.24454294 -1.0934969 -2.2956443 0.37408414
0000f0 91 56 40 bf 42 f4 13 3e 11 46 90 be e3 e7 89 c0
       -0.7513209 0.14448646 -0.28178456 -4.3095565

sequential_1_1/dense_10_1/BiasAdd/ReadVariableOp f4 [8]
000000 12 d9 8a bf c8 bb 51 bf 0b e6 89 40 07 93 77 be
       -1.0847495 -0.81927156 4.3093314 -0.2417718
000010 b1 04 e6 3f c2 5b b0 c0 b0 22 65 40 b1 62 07 40
       1.7970182 -5.511201 3.5802422 2.1153986

sequential_1_1/dense_6_1/BiasAdd/ReadVariableOp f4 [128]
000000 d7 89 6d bf 63 24 cc bf 3a c6 42 c0 4d fc 03 bf
       -0.9278845 -1.5948604 -3.0433488 -0.51556855
000010 ef 69 6e 3e dd 59 90 3f 45 4b 0e c0 49 e2 b1 bf
       0.23282598 1.1277424 -2.223344 -1.3897182
000020 cc 76 fe 3c 4e dc f3 bf 7c d0 93 bf 1e 89 96 c0
       0.031062506 -1.9051607 -1.1547999 -4.704238
000030 49 02 f6 bf 8e ca 3e c0 98 1b 09 c0 39 e9 b7 bf
       -1.9219447 -2.981113 -2.1423092 -1.4368049
000040 2b 5b 9d bf 8d a9 69 c0 ac 60 0d bf b0 0b d9 bf
       -1.2293447 -3.6509736 -0.55225635 -1.6956692
000050 32 3e ac 3c 29 a0 47 c0 84 8b 24 c0 cc ef 10 c0
       0.02102575 -3.1191504 -2.5710154 -2.264636
000060 0b f3 d2 bf 70 ee 0e bf 31 87 af be 36 ba 8b bf
       -1.6480421 -0.55832577 -0.3428283 -1.0916202
000070 40 0b f6 bf 0e 92 b1 be ce fc 90 be 1c f1 cd 3e
       -1.9222183 -0.34681743 -0.28317875 0.40223014
000080 43 76 f8 bf f7 26 21 bf 67 c8 06 c0 a1 a4 8b bf
       -1.9411091 -0.6295008 -2.1059816 -1.0909616
000090 60 c3 da bf 59 e5 be bf 02 70 82 bf a5 93 00 c0
       -1.7090874 -1.4913741 -1.0190432 -2.0090115
0000a0 38 8c c2 bf 2f 29 da bf 55 11 0f c0 ce aa 0f c0
       -1.5199041 -1.7043818 -2.2354329 -2.2448
0000b0 02 eb a8 bf 96 91 16 c0 c8 b1 7a bf f2 20 04 bf
       -1.3196719 -2.3526359 -0.9792752 -0.5161277
0000c0 ac 58 e0 bf be 53 a4 bf a6 4b a2 bf f4 4d 76 bf
       -1.752706 -1.2838056 -1.2679336 -0.962127
0000d0 14 9d bf be 00 98 c5 bf 81 52 65 bf 27 da e0 bf
       -0.3742453 -1.5437012 -0.89579016 -1.7566575
0000e0 20 ef b3 3e 2f 7c a3 bf eb 10 25 be ef a7 b8 bf
       0.35143375 -1.2772273 -0.16119735 -1.4426249
0000f0 e0 81 dc bf d1 41 0b be c9 63 85 c0 4b 3b a7 3f
       -1.7227135 -0.13599326 -4.168431 1.306497
000100 66 1c a5 3e 75 1f 26 bf 18 04 51 c0 54 e6 df bf
       0.3224823 -0.6489175 -3.2658749 -1.7492166
000110 bb 2f 76 bf d8 cf b0 bf b3 62 6a bf 78 b5 b6 bf
       -0.9616658 -1.3813429 -0.91556853 -1.427413
000120 fb 94 94 bf 57 0f e6 3e d5 84 6d bf 10 87 1b bf
       -1.1607965 0.44933578 -0.9278081 -0.60752964
000130 33 ea dc bf 78 ba a2 bf 95 d8 58 c0 9c f6 a7 bf
       -1.7258972 -1.2713156 -3.388219 -1.3122134
000140 cc 65 6f c0 23 bc 5f 3d d1 56 6b bf 14 31 31 bf
       -3.7405882 0.05462278 -0.91929346 -0.6921551
000150 bb e2 89 bf f4 b6 d6 bf 7a 83 95 c0 f1 4e 72 3d
       -1.0772318 -1.6774583 -4.6722994 0.059157316
000160 6c 51 a8 bf dd 73 69 bf 03 13 b6 bf b4 8b 20 c0
       -1.3149848 -0.9119242 -1.4224552 -2.5085268
000170 8d c8 01 bf f7 d0 3f c0 77 47 62 3f 86 4f 7b bf
       -0.5069664 -2.9971292 0.88390297 -0.9816822
000180 af 33 c0 bf 63 7c 0c c0 cf 3c 3d bf 67 ca 42 3e
       -1.5015773 -2.195092 -0.7392091 0.19022523
000190 59 35 54 bf c1 a4 f2 bf b0 b8 31 c0 aa 33 08 c0
       -0.828939 -1.8956529 -2.7768974 -2.1281533
0001a0 8d 2e b3 3f af 2d e5 3e 97 30 f9 bf af 03 6e c0
       1.3998581 0.44761416 -1.9467953 -3.7189748
0001b0 73 96 de bf a2 88 bc bf 0b 7a 12 c0 31 59 72 c0
       -1.7389663 -1.4729197 -2.288699 -3.7866938
0001c0 ae 27 3b bf 79 19 99 bf bc 5a c7 bf ad 31 8e 3f
       -0.7310742 -1.1960899 -1.5574565 1.110891
0001d0 ab 37 58 bf 22 c3 8d bf ca ba b9 bf cf d3 35 c0
       -0.8445994 -1.1075175 -1.4510128 -2.8410528
0001e0 d0 03 47 3f 23 8e 0a bf dd 6b 1e c0 59 56 4e bf
       0.7774019 -0.54123133 -2.4753335 -0.80600506
0001f0 1c a9 a2 be 46 26 c8 bf 3d 98 d6 be 18 8f 76 bf
       -0.31769645 -1.563668 -0.41913024 -0.96312094

sequential_1_1/dense_6_1/MatMul f4 [128, 41]
000000 ab 5c 50 bf 8e 5f a4 3f 4b b3 a8 bd d3 b7 ae be
       -0.813914 1.2841661 -0.082373224 -0.34124622
000010 9c 85 e0 be b3 54 b3 3d 9c 2e 4d c0 36 3a f5 bf
       -0.43851936 0.087563895 -3.2059698 -1.915839
000020 e9 99 99 bd d0 f7 8e 3f b0 4b a7 3d 44 0a 7c 3e
       -0.07500059 1.1169376 0.08168733 0.24613291
000030 92 46 ff bc 65 10 73 bf 0a e4 93 bd f3 42 c1 be
       -0.03116158 -0.9494689 -0.072212294 -0.3774639
000040 17 05 43 3f 3d 06 3e bd 9b 88 8e bf 7a e9 6c bf
       0.7617964 -0.046392668 -1.1135439 -0.92543757
000050 f2 1c 5f bd e4 33 65 3f 64 62 af 3d 12 87 6b 3e
       -0.054470964 0.89532304 0.085636884 0.23000744
000060 a9 de 89 3f c9 9b 13 bf 0b 85 da 3d 81 f3 fe 3c
       1.0771075 -0.57659584 0.10669907 0.031121971
000070 18 f0 9a be 68 08 ee 3d 39 f1 e8 3f 79 80 99 bd
       -0.30261302 0.11622697 1.8198615 -0.07495207
000080 f7 1f 60 3d 90 53 a8 3d e4 01 01 bf 58 b4 58 3d
       0.054717984 0.08219063 -0.5039351 0.052906364
000090 7b 8d 57 bf b3 35 6a 3f 24 cc a0 3e a4 d9 80 be
       -0.8420026 0.9148819 0.31405747 -0.25166047
0000a0 bf ed 13 3f 32 9c ef 3d 4b bb 83 bf f6 73 6a bb
       0.57784647 0.11699714 -1.0291532 -0.0035774685
0000b0 b4 3c 6a 3f 54 60 c2 3f c8 db a3 be c7 8f 3c 3e
       0.91498876 1.5185647 -0.32003617 0.18414222
0000c0 c7 ad e7 3e 7d 92 cd 3d a3 64 c4 3e e7 f9 6f 3d
       0.4524977 0.10037706 0.3835803 0.058587935
0000d0 a6 95 d7 bc 71 0e ec bd 94 e5 f0 bd e7 15 89 bd
       -0.026316475 -0.11526192 -0.117625386 -0.06693631
0000e0 0c bf 6e bf e1 0e 0c be 2c 79 a9 3b 76 95 61 3f
       -0.93260264 -0.13677551 0.0051719155 0.88118684
0000f0 46 a5 57 3f 96 af cc 3e bf 8e c1 3e 8b a0 a3 3d
       0.8423656 0.3997771 0.3780422 0.079896055
000100 76 ca 33 be 8d 6c ba 3d b1 6f f5 3e 4a 5c 83 3e
       -0.17557701 0.09102736 0.47936776 0.25656348
000110 44 9c 2b 3e b2 69 a5 be e4 c2 a1 be 4a b1 c0 3e
       0.1675883 -0.32307202 -0.31594002 0.3763526
000120 7a b5 94 bf ab bb 17 be 6c 35 2a 3e da 3f 10 bf
       -1.1617882 -0.14817683 0.16621941 -0.5634743
000130 1b c2 1c 3e 8b 04 38 c0 d3 d1 36 3d 3d f1 03 c0
       0.1530842 -2.8752773 0.044633698 -2.061599
000140 9c 59 81 3e e0 f9 5a 3e 88 5e 99 be c2 f3 8d bf
       0.2526368 0.21384382 -0.29954934 -1.1090014
000150 bf 22 ee bc 10 c5 25 bf ea df 46 bf f1 f7 11 bf
       -0.029069303 -0.6475382 -0.77685416 -0.57018954
000160 48 1d 9d 3f 29 f4 b6 3e c4 db 07 bc 35 a1 21 bf
       1.2274561 0.35733154 -0.008292142 -0.6313661
000170 84 1a 16 3f 8b d2 9b bd 3b 97 46 3f b2 fe 8b be
       0.5863421 -0.07608517 0.7757451 -0.27342755
000180 2b 8b 11 be 8d 4c ad 3f bc 93 78 bf 4b 98 40 3e
       -0.14213245 1.3538986 -0.97100425 0.18808095
000190 57 90 9a 3d bc ec 75 bd 7b 40 d8 bd 2d 04 35 bf
       0.07547062 -0.06004022 -0.10559174 -0.70709497
0001a0 b8 57 0f 3f 92 b7 f0 3d d4 72 1a bf f5 ea a6 be
       0.55993223 0.11753763 -0.60331464 -0.32601133
0001b0 df e5 3d be f2 74 01 3e 5e 82 cf 3e 54 c0 99 3e
       -0.1854472 0.12642267 0.4052915 0.30029547
0001c0 0e 1d c5 be 72 a6 17 be 90 15 12 3e 1f fa 98 be
       -0.3849873 -0.14809588 0.14266038 -0.29878327
0001d0 c6 f7 93 3e b5 67 60 bd 75 d7 0b 40 33 60 8f bf
       0.28899974 -0.054786403 2.1850255 -1.1201233
0001e0 1e 57 25 be 16 3e b2 3f f8 00 ac bf e8 46 1d bd
       -0.16146514 1.3925197 -1.3437796 -0.0383977
0001f0 a1 98 04 bf 06 23 c6 3d 62 eb 02 bf 3a 8e f3 bf
       -0.51795393 0.09674649 -0.51140416 -1.9027779
000200 e9 03 62 bd 11 95 ed 3f 5c b8 0c 3f e0 97 43 3e
       -0.05517951 1.8561116 0.5496881 0.19100904
000210 33 38 a2 bf a2 2e 38 bf 9a a0 47 be 28 b7 c9 be
       -1.2673401 -0.71946156 -0.19494858 -0.3939755
000220 d0 91 58 3f d7 5b 1f 3e 49 d4 6b be 09 2c 4f bd
       0.8459749 0.15562378 -0.23030199 -0.050579105
000230 92 5e 1f be 75 70 e0 3c 28 84 bf bf c1 74 20 3d
       -0.1556342 0.027397374 -1.4962206 0.039173845
000240 35 3c be bf ea 84 27 bf 14 d3 c0 be b2 dd 67 bf
       -1.4862124 -0.65437186 -0.3766104 -0.90572655
000250 bb d8 09 3f 4d 1f c8 3d 7e 36 29 bf 2d c6 ab 3e
       0.5384633 0.09771595 -0.66098773 0.33549634
000260 26 08 5a be 40 82 64 c0 18 c7 31 3f 3b ec f7 3d
       -0.21292171 -3.5704498 0.6944442 0.12105604
000270 11 fb e9 bf 14 38 86 3f d2 8b c7 be c5 05 84 3f
       -1.8279744 1.0485864 -0.38973862 1.0314261
000280 c2 d4 5f bf e4 09 c4 be d7 98 26 3f e8 c0 69 3e
       -0.8743402 -0.38288796 0.65076965 0.22827494
000290 77 8f c8 ba 3b 01 17 3f 7f b9 1f be 6d a0 09 3f
       -0.0015301545 0.5898625 -0.15598105 0.53760415
0002a0 c1 70 82 3e df 90 62 3e 22 9a 45 c0 52 d7 f1 bf
       0.2547665 0.22125576 -3.0875325 -1.8893836
0002b0 41 3f a9 be 93 0c f4 3f cb 4b 79 3f 93 11 4d 3d
       -0.3305607 1.9066337 0.97381276 0.05006559
0002c0 7b c6 4b bd af 7a 83 3d 1c ee b2 3d 0b 60 65 bf
       -0.049749833 0.064198844 0.08736822 -0.89599675
0002d0 46 77 9e 3d 7e ae f7 3d e1 6a 0c bf 14 ad 22 bf
       0.07737593 0.120938286 -0.54850584 -0.63545346
0002e0 23 99 47 be 21 9f eb 3f af f9 81 3f 2b 17 db bc
       -0.19492011 1.8407937 1.0154322 -0.026744446
0002f0 50 3b b7 3f fc 1f 67 3d 3f 8a c2 be ac 70 94 be
       1.4314976 0.056426987 -0.37996098 -0.28992212
000300 88 92 2f 3e 07 0e 0d 3c af 30 d6 bd d1 67 1f bf
       0.17145741 0.008609301 -0.104585044 -0.62267786
000310 b8 3c cd be 1c e3 e4 3e bb cb 1e bf 6b b5 34 be
       -0.40085387 0.4470452 -0.6202962 -0.1764733
000320 16 c9 83 bf 46 ad 3d 3f 31 59 4f 3f 41 0e 2f be
       -1.0295742 0.7409252 0.8099547 -0.17095281
000330 a7 63 ae 3e b8 1f d6 bb cf d6 4f 3e 55 62 d5 3b
       0.34060404 -0.006534543 0.20296787 0.006511966
000340 bf 95 1c 40 ab ce 0c 3f 3b 17 f9 bd 3b 56 43 c0
       2.4466398 0.5500285 -0.12162634 -3.052138
000350 6a 2a a4 bf db 30 0e bd c3 1b 07 3f 50 20 85 bf
       -1.2825444 -0.03471456 0.52776736 -1.0400486
000360 bb 20 0e 3e d0 33 96 be 2d bb da 3d 11 b7 ef 3d
       0.13879673 -0.29336405 0.10680232 0.11704839
000370 4f 63 f2 be 0a 5b 84 3f c4 d9 bb bd d6 5d 56 3f
       -0.4734139 1.0340283 -0.09172395 0.8373693
000380 45 b9 93 be ab 91 ac 3d e2 4c 0d 3f 55 29 54 bf
       -0.28852287 0.084262215 0.5519544 -0.8287557
000390 a3 d0 4d be 14 a4 af 3f 0b 2f 06 3f 8b 0f 10 3f
       -0.2009912 1.3721948 0.5241553 0.56273717
0003a0 06 79 17 be 26 e2 00 bf 7a d4 5c 3d c0 9f 8f 3f
       -0.1479226 -0.50345075 0.05391357 1.1220627
0003b0 8b 2a 3e bf 75 4b f4 3c 6f 26 cc bf 15 5b 34 3d
       -0.74283665 0.029821137 -1.5949229 0.044032175
0003c0 d7 97 2a 3e bf c3 66 3e 5b f7 a1 3f 06 f8 aa 3c
       0.16659485 0.22535609 1.2653612 0.02087022
0003d0 40 76 77 3e 67 9a 14 3f a7 51 e7 bf 6e dd aa be
       0.24166203 0.580481 -1.8071793 -0.33372062
0003e0 b4 d1 a0 3e 14 30 b0 3f 24 ea 23 bf 16 74 37 be
       0.3140999 1.3764672 -0.64029145 -0.17915377
0003f0 b2 0f c5 3f 1c e1 81 be a5 cd 07 3f a7 ab de bf
       1.5395415 -0.25367057 0.53048164 -1.7396134
